know-based/models/gps_pearson_best.pth (torch, 5471 bytes, 3 tensors)

weight f4 [64, 5, 1]
-0.110547274 0.30248117 0.25793338 0.28431362 -0.1613985 0.030954242 0.2214293 0.16861002
0.00025392324 0.2213299 0.23671901 -0.33924156 -0.194671 -0.2950451 -0.0355452 -0.2944405
-0.1838702 -0.43270525 0.25603873 0.081436634 0.42317623 -0.061953425 -0.37421158 -0.33861226
-0.42420667 0.16935265 0.0073961318 -0.40697625 -0.27653676 -0.11413309 0.40816438 0.2925473
-0.01227051 0.4050085 0.1686688 0.013829231 0.3578912 0.1072427 0.0035314858 -0.13999292
-0.084154546 -0.0075379014 -0.4044006 -0.40052745 -0.21103416 0.15271127 0.40741035 0.511616
0.42103857 0.5951883 0.08484459 -1.102426 -0.48039573 -0.8052725 -0.7243762 -0.43501368
-0.021257967 0.33327764 -0.27755678 0.24624282 -0.13276371 0.03654772 -0.24104579 -0.3959632
-0.18671444 -0.24598035 -0.03271977 0.6449727 0.20616896 0.16053872 -0.14104569 -0.66633236
-0.76474017 -1.2491636 -1.13293 -0.1240232 0.18101385 0.29467803 0.68743205 0.244626
-0.25540885 -0.11304262 0.074015915 -0.021137089 -0.3264444 -0.43800485 -0.41081056 -0.1542454
-0.13703784 -0.385259 0.1689176 0.3891647 -0.20430182 -0.017350167 -0.29832476 -0.27030098
-0.97400063 -0.5968204 -0.45968023 -0.80343574 0.42578602 -0.4072949 -0.4328057 0.123450994
-0.07485747 -0.27853784 0.08593106 0.32832524 0.15315282 0.60067004 0.42392522 -0.9669716
-0.30976963 -0.8209158 -0.47463658 0.16368979 -0.22241947 0.5214041 0.22105241 0.94620967
-0.069040984 0.16737866 0.32088894 -0.26278007 -0.24115257 0.18153846 0.118233405 0.18953414
0.39709714 0.18741444 -0.21089706 0.6049173 -0.020665467 0.7532905 0.8437754 0.40370387
-0.6845354 -1.1502328 -1.0308158 -1.1215643 0.1697604 0.13202494 0.28109604 -0.10746589
-0.2341043 -0.07994893 -1.2420688 -0.70092237 -0.75793195 -0.44779766 0.17875314 0.13877726
0.12745827 0.011714727 -0.3918721 0.17458552 -0.23885432 -0.13395615 -0.6649713 -0.3328635
0.23264796 -0.0638428 0.019767135 0.3346917 0.12918591 0.07949364 0.27873045 0.4408844
-0.060368776 0.003206998 0.24696761 -0.28358692 0.00777784 -0.13413733 0.11192006 -0.4336345
-0.1352576 0.36248147 -0.13161281 0.41413373 0.11378193 -1.0508819 -0.7578717 -1.2497871
-1.1821904 -0.4018531 0.14810157 -0.010489736 0.44345793 0.45387915 0.047492802 -0.06812093
-0.20060815 -0.033967227 0.3529815 0.34719634 0.24167635 0.4110743 0.20853859 0.42585123
-0.35980907 -0.43697602 0.4345364 0.35723174 -0.4029458 -0.005057335 0.19523169 0.15514985
0.27186066 -0.017887585 0.34240806 -1.0019192 -0.12765986 -0.87116766 -0.6993746 0.15354562
-0.4098979 0.21538877 -0.28075165 -0.3628347 0.14522815 -0.23305914 -0.51949996 -0.5914924
-0.13697013 0.39652312 -0.67837155 -0.21512708 -0.92060196 -0.7081281 0.3102547 -1.1137702
-0.14792906 -0.7378182 -0.41700554 -0.43030292 0.22310598 0.77013534 0.5446198 0.6424843
-0.23017062 0.46488887 0.47062793 -0.0529056 0.22394966 0.43011618 0.08940991 0.27610183
0.09277557 0.62578523 0.40029484 -0.123886526 -0.038646042 -0.21021476 -0.02384144 0.26293284
00000000: 9c66 e2bd d0de 9a3e d80f 843e 8e91 913e
00000010: a645 25be c093 fd3c 5dbe 623e 1ba8 2c3e
00000020: 0021 8539 4ea4 623e 7866 723e 12b1 adbe
00000030: d657 47be 2710 97be d897 11bd e8c0 96be
00000040: 7848 3cbe 8b8b ddbe 8217 833e 40c8 a63d
00000050: 8eaa d83e e0c2 7dbd a998 bfbe 965e adbe
00000060: 9e31 d9be c86a 2d3e 405b f23b 315f d0be
00000070: 3a96 8dbe 9cbe e9bd ecfa d03e c2c8 953e
00000080: 400a 49bc 465d cf3e 84b7 2c3e 0094 623c
00000090: 843d b73e 10a2 db3d 8070 673b 4e5a 0fbe
000000a0: 3859 acbd 8000 f7bb 980d cfbe ef11 cdbe
000000b0: 5719 58be 5860 1c3e 1798 d03e 44f9 023f
000000c0: 5e92 d73e 435e 183f 00c3 ad3d 4c1c 8dbf
000000d0: 6ef6 f5be 5726 4ebf b870 39bf 1dba debe
000000e0: 3025 aebc 5ea3 aa3e ec1b 8ebe 1427 7c3e
000000f0: 36f3 07be 10b3 153d b5d4 76be b0bb cabe
00000100: 1232 3fbe 46e2 7bbe 2a05 06bd ee1c 253f
00000110: f51d 533e 4364 243e 486e 10be c294 2abf
00000120: 03c6 43bf 98e4 9fbf da03 91bf e0ff fdbd
00000130: b25b 393e 0ae0 963e 8cfb 2f3f 3d7f 7a3e
00000140: f3c4 82be e482 e7bd a895 973d b027 adbc
00000150: b823 a7be 2c42 e0be c355 d2be 82f2 1dbe
00000160: a653 0cbe ab40 c5be bcf8 2c3e 9840 c73e
00000170: 7f34 51be f021 8ebc 06be 98be e464 8abe
00000180: 1b58 79bf 39c9 18bf 355b ebbe f7ad 4dbf
00000190: a000 da3e f588 d0be b598 ddbe e0d3 fc3d
000001a0: e04e 99bd 839c 8ebe a0fc af3d 3f1a a83e
000001b0: 18d4 1c3e 83c5 193f ba0c d93e 738b 77bf
000001c0: 209a 9ebe 8a27 52bf 9103 f3be 4c9e 273e
000001d0: eec1 63be bd7a 053f 905b 623e cc3a 723f
000001e0: 5c65 8dbd 5065 2b3e 8e4b a43e 1c8b 86be
000001f0: b3f0 76be 38e5 393e 5b24 f23d 3d15 423e
00000200: 5150 cb3e 92e9 3f3e 66f5 57be dcdb 1a3f
00000210: a04a a9bc a5d7 403f aa01 583f 46b2 ce3e
00000220: b63d 2fbf d43a 93bf c6f1 83bf 6b8f 8fbf
00000230: acd5 2d3e 8c31 073e d2eb 8f3e 1417 dcbd
00000240: 0ab9 6fbe 44bc a3bd 1cfc 9ebf a66f 33bf
00000250: d407 42bf bc45 e5be 100b 373e a01b 0e3e
00000260: 6c84 023e 20ef 3f3c 76a3 c8be 8cc6 323e
00000270: 3a96 74be cd2b 09be 8f3b 2abf 166d aabe
00000280: 443b 6e3e 04c0 82bd b0ee a13c b65c ab3e
00000290: 5049 043e 90cd a23d c2b5 8e3e 9abb e13e
000002a0: 4045 77bd 802c 523b 14e5 7c3e 4e32 91be
000002b0: 40dd fe3b 4c5b 09be 5836 e53d 5705 debe
000002c0: f880 0abe 2c97 b93e 82c5 06be 5609 d43e
000002d0: 8006 e93d 4c83 86bf e103 42bf 06f9 9fbf
000002e0: 0452 97bf b1bf cdbe f0a7 173e 24dd 2bbc
000002f0: eb0c e33e d962 e83e d087 423d fc82 8bbd
00000300: 396c 4dbe 3821 0bbd feb9 b43e b8c3 b13e
00000310: 017a 773e 5578 d23e 248b 553e 2c09 da3e
00000320: e538 b8be 52bb dfbe 8e7b de3e 14e7 b63e
00000330: e94e cebe 00b8 a5bb d1ea 473e 9adf 1e3e
00000340: 5231 8b3e fc88 92bc 1c50 af3e e33e 80bf
00000350: 44b9 02be d804 5fbf 370a 33bf 103b 1d3e
00000360: 23de d1be e08e 5c3e aebe 8fbe 78c5 b9be
00000370: b0b6 143e 0ea7 6ebe f3fd 04bf 0c6c 17bf
00000380: e641 0cbe 1405 cb3e c2a9 2dbf 464a 5cbe
00000390: 92ac 6bbf e247 35bf b4d9 9e3e 0690 8ebf
000003a0: b77a 17be a7e1 3cbf c081 d5be aa50 dcbe
000003b0: e575 643e 9727 453f 346c 0b3f da79 243f
000003c0: d9b1 6bbe ea05 ee3e 25f6 f03e 8bb3 58bd
000003d0: 0f53 653e 3038 dc3e 8b1c b73d 385d 8d3e
000003e0: 1e01 be3d 7633 203f 72f3 cc3e 38b8 fdbd
000003f0: 504b 1ebd 8a42 57be 204f c3bc 229f 863e

bias f4 [64]
-0.32973695 0.4134871 -0.34106675 -0.10122576 -0.41050354 -0.0063151717 -0.15541235 -0.3574634
-0.32019308 0.6068491 -0.15136282 -0.041222125 -0.1725358 0.464269 -0.56968397 0.39472836
-0.27019447 -0.06193012 -0.23735271 -0.43561834 -0.36243805 0.22154468 -0.5301024 0.6290549
0.23816156 0.24949685 0.6323954 -0.4958543 -0.41804767 -0.5179468 -0.076372504 -0.5286102
-0.026466161 -0.34660903 -0.44690236 -0.19573298 -0.5838838 -0.04540038 -0.20105053 0.7360632
-0.43027765 0.3151973 -0.3483615 -0.18809992 -0.61539996 -0.56523645 -0.105052404 0.56734437
0.21391982 0.50957906 -0.3861256 -0.64892167 -0.06821826 -0.35999402 0.5355759 -0.23362167
-0.2614993 -0.09240028 -0.22160898 0.37909502 -0.5258806 -0.5643053 -0.6198251 0.25108802
00000000: 48d3 a8be 95b4 d33e 4da0 aebe 744f cfbd
00000010: 852d d2be 80ef cebb 6a24 1fbe 7105 b7be
00000020: 59f0 a3be 765a 1b3f dbfe 1abe 88d8 28bd
00000030: 3aad 30be abb4 ed3e cfd6 11bf d619 ca3e
00000040: ee56 8abe 70aa 7dbd 970c 73be 5e09 dfbe
00000050: 7b91 b9be 9cdc 623e cab4 07bf be09 213f
00000060: a0e0 733e 1a7c 7f3e aae4 213f 9de0 fdbe
00000070: 580a d6be 2998 04bf 3069 9cbd 0053 07bf
00000080: 90cf d8bc bd76 b1be 63d0 e4be 3a6e 48be
00000090: 6979 15bf c0f5 39bd 31e0 4dbe a36e 3c3f
000000a0: 5a4d dcbe 8a61 a13e 705c b2be 449d 40be
000000b0: da8a 1dbf 56b3 10bf b725 d7bd 7b3d 113f
000000c0: cc0d 5b3e c673 023f 41b2 c5be bb1f 26bf
000000d0: 04b6 8bbd 2351 b8be 811b 093f 853a 6fbe
000000e0: 3ce3 85be 5c3c bdbd 77ed 62be be18 c23e
000000f0: 1ca0 06bf 5076 10bf dcac 1ebf 9c8e 803e

weight f4 [1, 64]
-0.04331258 0.3807125 0.09164627 0.018006727 -0.014548883 0.012283042 -0.02416727 -0.08866668
0.09345113 0.5201342 0.31152868 0.12090771 -0.090096086 0.44183183 0.6590126 0.3793405
0.03040333 -0.0033073872 -0.026173651 0.5287202 -0.07273851 0.22121562 0.565167 0.5144677
0.2880962 0.23555878 0.5080567 0.35207573 -0.092556015 0.4494804 -0.08035177 0.52571195
-0.095961004 0.07812111 -0.047764003 -0.12171878 0.4992393 -0.0288869 0.052332565 0.5911122
0.08071262 0.35987577 0.5293772 0.01597713 0.5629729 0.5733356 0.3781549 0.50388646
0.23904796 0.44775707 0.009234533 0.63534665 0.054396078 -0.06882447 0.4623046 0.11350009
0.034938395 -0.0065636337 0.0045073777 0.3642519 0.47607723 0.48637807 0.567562 0.2950895
00000000: 8868 31bd c0ec c23e 0ab1 bb3d d882 933c
00000010: 705e 6ebc d03e 493c 70fa c5bc e096 b5bd
00000020: 4e63 bf3d 8427 053f b080 9f3e 769e f73d
00000030: 4c84 b8bd c837 e23e 0db5 283f eb38 c23e
00000040: 6810 f93c c0c0 58bb 206a d6bc 355a 073f
00000050: eef7 94bd 5986 623e c9ae 103f 28b4 033f
00000060: 5881 933e 5236 713e 0110 023f 4543 b43e
00000070: 028e bdbd 4c22 e63e 788f a4bd 0f95 063f
00000080: 3487 c4bd f6fd 9f3d 30a4 43bd b247 f9bd
00000090: 4b9c ff3e 38a4 ecbc ac5a 563d 2153 173f
000000a0: a84c a53d a341 b83e 4485 073f 78e2 823c
000000b0: fe1e 103f 1fc6 123f 859d c13e b4fe 003f
000000c0: fdc8 743e 6a40 e53e 704c 173c 14a6 223f
000000d0: 6cce 5e3d d8f3 8cbd 30b3 ec3e bc72 e83d
000000e0: 901b 0f3d c013 d7bb a0b2 933b 3a7f ba3e
000000f0: 65c0 f33e 8c06 f93e be4b 113f f915 973e
