know-based/models/gps_pearson_last.pth (torch, 5471 bytes, 3 tensors)

weight f4 [64, 5, 1]
000000 9c 66 e2 bd d0 de 9a 3e d8 0f 84 3e 8e 91 91 3e
       -0.110547274 0.30248117 0.25793338 0.28431362
000010 a6 45 25 be c0 93 fd 3c a5 8f 19 3e 0b bb 6a 3e
       -0.1613985 0.030954242 0.14996202 0.22922914
000020 19 7c 5b 3d 34 62 bf 3e 78 66 72 3e 12 b1 ad be
       0.053585146 0.3737961 0.23671901 -0.33924156
000030 d6 57 47 be 27 10 97 be d8 97 11 bd e8 c0 96 be
       -0.194671 -0.2950451 -0.0355452 -0.2944405
000040 78 48 3c be 8b 8b dd be 82 17 83 3e 40 c8 a6 3d
       -0.1838702 -0.43270525 0.25603873 0.081436634
000050 8e aa d8 3e e0 c2 7d bd a9 98 bf be 96 5e ad be
       0.42317623 -0.061953425 -0.37421158 -0.33861226
000060 9e 31 d9 be c8 6a 2d 3e 40 5b f2 3b 31 5f d0 be
       -0.42420667 0.16935265 0.0073961318 -0.40697625
000070 3a 96 8d be 9c be e9 bd ec fa d0 3e c2 c8 95 3e
       -0.27653676 -0.11413309 0.40816438 0.2925473
000080 40 0a 49 bc 46 5d cf 3e 84 b7 2c 3e 00 94 62 3c
       -0.01227051 0.4050085 0.1686688 0.013829231
000090 84 3d b7 3e 10 a2 db 3d 80 70 67 3b 4e 5a 0f be
       0.3578912 0.1072427 0.0035314858 -0.13999292
0000a0 38 59 ac bd 80 00 f7 bb 98 0d cf be ef 11 cd be
       -0.084154546 -0.0075379014 -0.4044006 -0.40052745
0000b0 57 19 58 be 58 60 1c 3e 47 7c ac 3e 0c d3 16 3f
       -0.21103416 0.15271127 0.33688566 0.5891578
0000c0 56 f0 fa 3e 0f cf 46 3f 00 c3 ad 3d d2 b9 92 bf
       0.49011487 0.77659696 0.08484459 -1.1462958
0000d0 75 3a 01 bf b7 70 54 bf 37 09 3f bf 1d ba de be
       -0.50479823 -0.8298449 -0.74623436 -0.43501368
0000e0 30 25 ae bc 5e a3 aa 3e ec 1b 8e be 14 27 7c 3e
       -0.021257967 0.33327764 -0.27755678 0.24624282
0000f0 36 f3 07 be 10 b3 15 3d b5 d4 76 be b0 bb ca be
       -0.13276371 0.03654772 -0.24104579 -0.3959632
000100 12 32 3f be 46 e2 7b be 42 7e c9 bd 79 05 34 3f
       -0.18671444 -0.24598035 -0.09838535 0.7032085
000110 2e d9 83 3e 9d 22 9c 3e 48 6e 10 be b3 d4 34 bf
       0.25751632 0.30495158 -0.14104569 -0.70637053
000120 74 b6 4d bf 6e d5 a4 bf 60 e8 95 bf e0 ff fd bd
       -0.80356526 -1.2877634 -1.171154 -0.1240232
000130 ef 83 e8 3d ea 94 b1 3e 52 a8 3b 3f 7e 70 c2 3e
       0.11353289 0.34683925 0.7330371 0.3797645
000140 f3 c4 82 be e4 82 e7 bd a8 95 97 3d b0 27 ad bc
       -0.25540885 -0.11304262 0.074015915 -0.021137089
000150 b8 23 a7 be 2c 42 e0 be c3 55 d2 be 82 f2 1d be
       -0.3264444 -0.43800485 -0.41081056 -0.1542454
000160 a6 53 0c be ab 40 c5 be bc f8 2c 3e 98 40 c7 3e
       -0.13703784 -0.385259 0.1689176 0.3891647
000170 7f 34 51 be f0 21 8e bc 06 be 98 be e4 64 8a be
       -0.20430182 -0.017350167 -0.29832476 -0.27030098
000180 e6 fb 7d bf d5 58 1d bf 87 7d f4 be 20 3e 52 bf
       -0.9921249 -0.6146367 -0.4775202 -0.82126045
000190 a0 00 da 3e f5 88 d0 be b5 98 dd be e0 d3 fc 3d
       0.42578602 -0.4072949 -0.4328057 0.123450994
0001a0 e0 4e 99 bd 83 9c 8e be 21 a8 ce 3c 17 08 b4 3e
       -0.07485747 -0.27853784 0.025226654 0.35162422
0001b0 bf 52 30 3e ed 4d 2e 3f ba 0c d9 3e a5 31 7c bf
       0.17219065 0.68087655 0.42392522 -0.9851325
0001c0 7f e6 a7 be ae cd 56 bf e7 4f fc be 4c 9e 27 3e
       -0.32793042 -0.8390759 -0.4927971 0.16368979
0001d0 6d ea 96 be 14 cf 19 3f 3d 60 95 3e cc ee 90 3f
       -0.29475728 0.600816 0.29174986 1.1322875
0001e0 5c 65 8d bd 27 00 dc 3d 73 27 c2 3e 3d 8f 57 be
       -0.069040984 0.107422166 0.37920722 -0.21050735
0001f0 35 65 d3 bd 38 e5 39 3e 2c 47 69 3d 8e ad 5b 3e
       -0.10322038 0.18153846 0.05695264 0.21452925
000200 40 dd d5 3e 3e ae 8a 3e 66 f5 57 be 32 ec 07 3f
       0.41770363 0.2708606 -0.21089706 0.5309478
000210 64 4e 79 3d b4 6d 53 3f 66 6d 84 3f 46 b2 ce 3e
       0.060865775 0.8258927 1.0345886 0.40370387
000220 a3 3b 3c bf 39 6f 99 bf 45 27 8a bf 8c a4 95 bf
       -0.735285 -1.1987067 -1.0793234 -1.1690841
000230 ac d5 2d 3e 8c 31 07 3e d2 eb 8f 3e 14 17 dc bd
       0.1697604 0.13202494 0.28109604 -0.10746589
000240 0a b9 6f be 44 bc a3 bd f9 7c a5 bf b9 86 3f bf
       -0.2341043 -0.07994893 -1.2928764 -0.74814945
000250 a8 19 4e bf 42 d4 fc be 10 0b 37 3e a0 1b 0e 3e
       -0.805079 -0.4938069 0.17875314 0.13877726
000260 6c 84 02 3e 20 ef 3f 3c 76 a3 c8 be 8c c6 32 3e
       0.12745827 0.011714727 -0.3918721 0.17458552
000270 91 03 83 be 8b 11 1b be c1 b1 2e bf 7c 61 b3 be
       -0.25588658 -0.15143411 -0.6823998 -0.35035312
000280 44 3b 6e 3e 04 c0 82 bd b0 ee a1 3c b6 5c ab 3e
       0.23264796 -0.0638428 0.019767135 0.3346917
000290 50 49 04 3e 90 cd a2 3d c2 b5 8e 3e 9a bb e1 3e
       0.12918591 0.07949364 0.27873045 0.4408844
0002a0 40 45 77 bd 80 2c 52 3b 14 e5 7c 3e 4e 32 91 be
       -0.060368776 0.003206998 0.24696761 -0.28358692
0002b0 40 dd fe 3b 4c 5b 09 be 58 36 e5 3d 57 05 de be
       0.00777784 -0.13413733 0.11192006 -0.4336345
0002c0 f8 80 0a be 2c 97 b9 3e 82 c5 06 be 56 09 d4 3e
       -0.1352576 0.36248147 -0.13161281 0.41413373
0002d0 80 06 e9 3d f7 70 8c bf e4 17 4e bf aa e9 a5 bf
       0.11378193 -1.0971974 -0.80505204 -1.2961934
0002e0 78 3b 9d bf b1 bf cd be c2 df 0c 3e a3 2d 97 bc
       -1.2283773 -0.4018531 0.13757232 -0.018454378
0002f0 84 3f df 3e f5 d2 e5 3e d0 87 42 3d fc 82 8b bd
       0.43603146 0.4488751 0.047492802 -0.06812093
000300 39 6c 4d be 38 21 0b bd fe b9 b4 3e b8 c3 b1 3e
       -0.20060815 -0.033967227 0.3529815 0.34719634
000310 eb d0 32 3e 73 53 fd 3e 30 30 91 3e ed 83 1d 3f
       0.17462508 0.4947773 0.28357077 0.6152943
000320 e5 38 b8 be 52 bb df be 8e 7b de 3e 14 e7 b6 3e
       -0.35980907 -0.43697602 0.4345364 0.35723174
000330 e9 4e ce be 00 b8 a5 bb d5 e2 04 3e 3f d0 67 3e
       -0.4029458 -0.005057335 0.12977155 0.22638033
000340 3b e4 ab 3e bd 8c 16 3e 1c 50 af 3e fd 91 82 bf
       0.33572564 0.14702125 0.34240806 -1.0200802
000350 4f 64 11 be e9 c5 62 bf 01 c9 36 bf 10 3b 1d 3e
       -0.14198421 -0.88583237 -0.7140046 0.15354562
000360 23 de d1 be e0 8e 5c 3e ae be 8f be 78 c5 b9 be
       -0.4098979 0.21538877 -0.28075165 -0.3628347
000370 b0 b6 14 3e e6 9f 80 be 1d a4 09 bf 1d 12 1c bf
       0.14522815 -0.25121993 -0.5376604 -0.6096514
000380 57 da 1e be 14 05 cb 3e ef 4f 32 bf ee e2 6e be
       -0.15512978 0.39652312 -0.6965322 -0.23328754
000390 a4 52 70 bf 03 ee 39 bf b4 d9 9e 3e e3 8a 93 bf
       -0.938761 -0.726288 0.3102547 -1.152676
0003a0 00 97 45 be 96 d6 45 bf da 87 e6 be aa 50 dc be
       -0.19295883 -0.7728056 -0.45025522 -0.43030292
0003b0 28 e9 1b 3e 71 72 58 3f 01 94 1c 3f 43 07 52 3f
       0.15225661 0.84549624 0.61163336 0.8204233
0003c0 d9 b1 6b be ea e5 cd 3e ed c3 00 3f 4d e9 cf bc
       -0.23017062 0.40214473 0.5029896 -0.025379801
0003d0 6f 42 a4 3e 30 38 dc 3e df c6 8f 3c 86 a6 b0 3e
       0.32081935 0.43011618 0.017550884 0.34502047
0003e0 de 71 1d 3e fd 0e 4b 3f 72 f3 cc 3e 38 b8 fd bd
       0.15375468 0.79319745 0.40029484 -0.123886526
0003f0 50 4b 1e bd 8a 42 57 be 20 4f c3 bc 22 9f 86 3e
       -0.038646042 -0.21021476 -0.02384144 0.26293284

bias f4 [64]
000000 48 d3 a8 be 46 50 c2 3e 4d a0 ae be 74 4f cf bd
       -0.32973695 0.3795187 -0.34106675 -0.10122576
000010 85 2d d2 be 80 ef ce bb 6a 24 1f be 71 05 b7 be
       -0.41050354 -0.0063151717 -0.15541235 -0.3574634
000020 59 f0 a3 be 51 ef 13 3f 57 61 31 be 88 d8 28 bd
       -0.32019308 0.5778704 -0.17322288 -0.041222125
000030 3a ad 30 be f4 1f de 3e 60 17 1c bf 3d 09 b9 3e
       -0.1725358 0.43383753 -0.6097317 0.3613986
000040 ee 56 8a be 70 aa 7d bd 97 0c 73 be 71 25 e8 be
       -0.27019447 -0.06193012 -0.23735271 -0.45341066
000050 7b 91 b9 be c1 fd 3d 3e 00 5b 0c bf 04 64 19 3f
       -0.36243805 0.1855383 -0.54826355 0.59918237
000060 d5 f4 59 3e a3 b2 5a 3e 16 17 1a 3f 55 94 0b bf
       0.21284802 0.21357207 0.60191476 -0.5452321
000070 58 0a d6 be 3c 6b 11 bf 30 69 9c bd 3d e7 0b bf
       -0.41804767 -0.5680425 -0.076372504 -0.54649717
000080 90 cf d8 bc bd 76 b1 be 63 d0 e4 be 3a 6e 48 be
       -0.026466161 -0.34660903 -0.44690236 -0.19573298
000090 fb 30 22 bf af 78 84 bd 31 e0 4d be 2d 16 36 3f
       -0.6335599 -0.06468331 -0.20105053 0.7112759
0000a0 5a 4d dc be 72 f6 93 3e 3e 3b b9 be 44 9d 40 be
       -0.43027765 0.2889896 -0.3617801 -0.18809992
0000b0 10 31 22 bf 8c 59 15 bf 00 5a 1f be cc 9b 09 3f
       -0.63356113 -0.5833976 -0.15561676 0.5375335
0000c0 f6 4e 37 3e 1c 6c f4 3e 41 b2 c5 be ee 45 32 bf
       0.17901215 0.4773873 -0.3861256 -0.69637954
0000d0 04 b6 8b bd 23 51 b8 be 28 da 00 3f 85 3a 6f be
       -0.06821826 -0.35999402 0.5033288 -0.23362167
0000e0 3c e3 85 be 5c 3c bd bd 77 ed 62 be 77 02 b1 3e
       -0.2614993 -0.09240028 -0.22160898 0.34572193
0000f0 b1 cf 10 bf 86 1c 15 bf 43 20 2c bf e3 3a 6c 3e
       -0.5656691 -0.5824665 -0.6723673 0.23069339

weight f4 [1, 64]
000000 88 68 31 bd a7 c2 b4 3e 0a b1 bb 3d d8 82 93 3c
       -0.04331258 0.35304758 0.09164627 0.018006727
000010 70 5e 6e bc d0 3e 49 3c 70 fa c5 bc e0 96 b5 bd
       -0.014548883 0.012283042 -0.02416727 -0.08866668
000020 4e 63 bf 3d 70 39 01 3f 8b 3a 9e 3e 76 9e f7 3d
       0.09345113 0.5047827 0.3090404 0.12090771
000030 4c 84 b8 bd db 9a d5 3e 5b cb 2e 3f fb ff b3 3e
       -0.090096086 0.41719708 0.68279046 0.35156235
000040 68 10 f9 3c c0 c0 58 bb 20 6a d6 bc 7d 6f 0c 3f
       0.03040333 -0.0033073872 -0.026173651 0.5485762
000050 ee f7 94 bd cf 0b 46 3e ff 54 15 3f b2 83 00 3f
       -0.07273851 0.19340442 0.5833282 0.5020095
000060 d1 61 7c 3e b4 ad 50 3e 38 c4 fc 3e 7b 8a b4 3e
       0.24646689 0.20378762 0.49368453 0.35261902
000070 02 8e bd bd 59 d0 e9 3e 78 8f a4 bd 51 3d 0b 3f
       -0.092556015 0.4566677 -0.08035177 0.54390436
000080 34 87 c4 bd f6 fd 9f 3d 30 a4 43 bd b2 47 f9 bd
       -0.095961004 0.07812111 -0.047764003 -0.12171878
000090 f5 ba 02 3f c8 f6 4a bd ac 5a 56 3d 93 30 14 3f
       0.51066524 -0.049551755 0.052332565 0.5788662
0000a0 a8 4c a5 3d fd ad a6 3e b2 46 0c 3f 78 e2 82 3c
       0.08071262 0.32554618 0.5479537 0.01597713
0000b0 34 c5 14 3f 55 6c 17 3f 7d b7 c1 3e 68 53 fa 3e
       0.5811341 0.59149677 0.37835303 0.4889176
0000c0 ed 77 53 3e 49 9f da 3e 70 4c 17 3c a9 47 28 3f
       0.20651217 0.4269965 0.009234533 0.65734345
0000d0 6c ce 5e 3d d8 f3 8c bd a4 ca e4 3e bc 72 e8 3d
       0.054396078 -0.06882447 0.44685853 0.11350009
0000e0 90 1b 0f 3d c0 13 d7 bb a0 b2 93 3b 9d 10 aa 3e
       0.034938395 -0.0065636337 0.0045073777 0.332158
0000f0 b9 f0 f9 3e 7c 29 01 3f f5 7f 15 3f 08 9c 82 3e
       0.4881647 0.50453925 0.5839837 0.25509667
