know-based/models/gps_pearson.pth (torch, 5027 bytes, 2 tensors)

weight f4 [64, 5, 1]
000000 6c d6 d8 be 5d b5 3e bf 64 02 1a bf 40 47 39 bf
       -0.4235109 -0.7449549 -0.601599 -0.72374344
000010 c0 23 85 be 5a a0 85 be 0a e5 d0 be e3 2b 57 bf
       -0.26003838 -0.260989 -0.40799743 -0.8405134
000020 cb 31 e6 be a8 27 9a be 72 b7 8c be ce 1c ef bf
       -0.44959864 -0.3010838 -0.27483708 -1.8680665
000030 04 4d 74 3f 6f 13 b7 3f 7b 5e 2f 3f f2 a3 8d be
       0.95430017 1.4302806 0.6850354 -0.27664143
000040 3c 8f be bd 20 ae 2c bc 67 f5 cb be 38 51 43 3d
       -0.093046635 -0.0105395615 -0.39835665 0.047684878
000050 76 63 9b be 3f 67 2b 3f 1b 56 01 be 44 90 90 bf
       -0.3034932 0.66954416 -0.12630503 -1.1294026
000060 30 25 7b 3f 28 df 51 3e 80 70 d5 bd 00 f8 ab be
       0.9810362 0.20495284 -0.10421848 -0.33587646
000070 bf 73 cb be 20 bb ef bd c4 43 18 3e 0f 56 34 3f
       -0.39736745 -0.11705613 0.148696 0.70443815
000080 03 06 ec 3d df 85 5d bf 6a 34 11 be 6a 26 da be
       0.11524584 -0.86532396 -0.1418015 -0.42607433
000090 d8 c2 87 bf 4c 59 8a 3f 5b 83 d0 3e 6e 27 ea 3f
       -1.0606337 1.0808501 0.40725216 1.8293283
0000a0 83 28 93 be 39 7c 9a 3e c3 ac 30 3f 15 eb 1b 3f
       -0.28741845 0.301729 0.69013613 0.6090558
0000b0 0c a8 5b 3f 56 7a b2 3e 5c 8c 6d bf 56 a2 4a 3f
       0.85803294 0.3485896 -0.92792296 0.79153955
0000c0 24 82 7b 3e 47 e0 18 bd 5e fd b3 3e 05 12 17 c0
       0.24561363 -0.037323263 0.3515424 -2.3604748
0000d0 e0 73 70 be c6 bd 86 3d 53 b0 73 3f d4 aa ba 3e
       -0.23481703 0.06579165 0.95190924 0.36458457
0000e0 ce 8f 0d bf 3d 4f 42 bf 85 2a 80 bf cb dc bc be
       -0.55297554 -0.7590216 -1.0012976 -0.36887202
0000f0 3c ec 49 3e 3e 7e d0 be 64 89 c3 be 20 ff 13 be
       0.19719023 -0.40721315 -0.38190758 -0.14452791
000100 4e ad e3 be 64 b6 58 3e da 37 15 bf 3c 08 23 bf
       -0.44468158 0.21163327 -0.5828835 -0.6368444
000110 ac 6f c0 bf 69 e5 bb bf cc 1e 09 3e e9 dc 60 3f
       -1.503408 -1.4679385 0.13390654 0.8783708
000120 76 9b 10 be 0a 7f 9f bf 6b 05 8b 3f 60 d1 bb 3c
       -0.14121804 -1.2460644 1.0861028 0.022926986
000130 8b 69 46 3f fa 20 d0 bd 5f dc 74 bf f9 e9 51 3f
       0.77504796 -0.1016254 -0.9564876 0.8199764
000140 30 08 c5 be 48 ea 00 bd b4 c9 2f be 64 ba 40 be
       -0.3848281 -0.031473428 -0.17166787 -0.18821102
000150 d4 2b 85 be ae 0f c7 3e 90 ce f5 3e 22 89 58 3e
       -0.2601 0.3887915 0.48009157 0.21146062
000160 c6 d1 1d bf 24 cc 73 3d 2c 45 c2 bd 0a 0f 94 bf
       -0.61648214 0.059520856 -0.0948585 -1.156709
000170 b6 a0 5f 3f 19 d1 53 3f 15 ca 17 40 65 5f 4d be
       0.873546 0.8274093 2.371709 -0.20055921
000180 5e 68 80 3f 36 fd da bd 53 13 81 bf 5a 32 5d 3f
       1.003185 -0.106928274 -1.0084022 0.86404955
000190 8a ae 88 3e d4 46 49 3f 3f 59 b6 3d 6f 72 a8 bf
       0.26695663 0.786237 0.08903741 -1.3159922
0001a0 37 33 13 3e da cd 8b be 90 8c c4 bc 64 1f 28 be
       0.14375006 -0.2730549 -0.023992807 -0.16418225
0001b0 9e 27 18 bf b9 a3 0e bf 26 29 80 be c3 59 58 bf
       -0.5943545 -0.5571857 -0.25031394 -0.84511966
0001c0 36 f4 80 3f 32 91 9e 3e dc a5 94 3f dc 95 20 3e
       1.0074527 0.3097015 1.1613116 0.15682167
0001d0 84 43 5e bf fd d3 35 3f 1e 44 ab 3e 18 45 ee 3f
       -0.8682177 0.71026593 0.33450407 1.8614836
0001e0 2e af 90 be cf 4e 63 3f 4d 0d 22 3e 57 cf 82 bf
       -0.28258651 0.8879213 0.15825386 -1.0219525
0001f0 1d ec 84 be 2a a1 e1 be be 49 1c bf e6 71 5c 3f
       -0.2596139 -0.4406827 -0.6105002 0.86111295
000200 ee 34 88 3d dc 6b 2a 3f ca 78 cf be 78 94 cd be
       0.066507205 0.6657083 -0.40521842 -0.40152335
000210 fd 41 44 bf 37 ab 9a bf 78 16 c7 bf 74 4b 84 be
       -0.7666319 -1.2083501 -1.5553732 -0.25838816
000220 7e 8a 34 bf db 88 94 be 31 31 22 be 95 cf 55 bf
       -0.7052382 -0.29010662 -0.15839078 -0.8351987
000230 1a 75 d1 3e b9 ad 69 bc dd 89 aa 3f 49 37 07 3f
       0.40909654 -0.01426261 1.3323323 0.52818733
000240 84 9b 51 3f e5 02 bc be a9 3a a3 be 90 83 81 3d
       0.81877923 -0.36720958 -0.31880692 0.06323922
000250 1f 33 b7 be 36 e6 a1 be 62 2e 88 3e c4 9a 14 3f
       -0.3578119 -0.3162095 0.26597887 0.58048654
000260 09 60 4e 3e 7b e4 26 bf ef 2e a1 bc 40 72 0b 3e
       0.20153822 -0.65192384 -0.0196757 0.13617802
000270 97 17 56 3f 67 19 1e be d9 62 b0 bf 13 4a 99 3f
       0.83629745 -0.15439378 -1.3780166 1.1975731
000280 84 b9 ad bd 9e f9 9a 3d 5b 72 99 3f 15 e2 44 3f
       -0.0848265 0.07567142 1.1988024 0.76907474
000290 1a 34 12 3f 18 75 87 3d a3 94 7d bf ce 45 44 3f
       0.5711075 0.06614131 -0.99054927 0.76669014
0002a0 a3 7d d2 3e 74 88 b6 3d 18 26 4c 3e 9e fc dc be
       0.41111478 0.08912745 0.19936407 -0.43161482
0002b0 25 af d1 be c6 8d 9f be 52 61 43 be 00 d9 98 3b
       -0.40953937 -0.31162852 -0.19080094 0.0046645403
0002c0 f9 d0 10 3f 6f b7 46 3d fc 56 18 bf ea 70 9e bd
       0.56568867 0.04851478 -0.5950773 -0.077363804
0002d0 ac 97 9e bd 24 1a c1 3d ec 14 92 3f 04 20 dd 3f
       -0.07743773 0.09428814 1.1412635 1.7275395
0002e0 2f 10 ab 3f 60 b6 6a 3e 6d 3d 0a bf c7 0e 70 bf
       1.3364314 0.22921133 -0.5399998 -0.9377255
0002f0 c9 5f 79 be ac a8 d7 be e0 a6 bc be d7 cc 91 bd
       -0.24352945 -0.42120874 -0.36846066 -0.07119148
000300 0e 03 be 3f 44 b8 8e 3f ae c5 9e 3f 36 30 cd be
       1.4844682 1.1149983 1.2404077 -0.40075845
000310 ab c0 03 bf 47 01 12 bf c6 e3 01 bf 8f 01 01 bf
       -0.51465863 -0.570332 -0.5073818 -0.50393003
000320 a8 9e ae 3e 7a ac 47 3f a8 34 b3 3d 09 24 96 bf
       0.3410542 0.77997553 0.08750278 -1.1729747
000330 e2 c8 60 3d 5c b1 79 3e c8 44 d3 bd 6b fc f7 be
       0.054879077 0.24384063 -0.10315853 -0.48434767
000340 d8 d6 78 bf dd a6 23 bf f0 fc 85 be d7 8b f3 be
       -0.97202826 -0.6392649 -0.26169538 -0.47567627
000350 cb da 4f bf 94 b1 2f bf d4 1d 7d bf 88 77 36 3e
       -0.81193227 -0.6863034 -0.9887364 0.17819035
000360 94 90 d0 bf f1 34 6d 3f f0 11 4e 3f 7d 31 87 40
       -1.6294122 0.9265891 0.8049612 4.224791
000370 e0 7b 41 3d 02 8d 62 3e ff f5 44 3d 1b b5 26 be
       0.047237277 0.22124103 0.048086163 -0.16280024
000380 25 d0 0b be 20 15 07 3d 8e 46 1c bf 0e 19 7c be
       -0.1365362 0.03297913 -0.6104516 -0.24618933
000390 f7 a2 03 bf 32 26 35 bf 5f 15 d4 be f7 e8 ec be
       -0.5142054 -0.70761406 -0.41422555 -0.46271488
0003a0 bd fb 8c bf 23 8b b9 bf 42 da cc bf 78 60 f0 3d
       -1.1014324 -1.4495586 -1.6004107 0.1173715
0003b0 38 b2 48 3f d3 c2 83 3d 32 c1 01 bf 4f 9b 47 be
       0.7839694 0.06433644 -0.5068542 -0.1949284
0003c0 d0 c4 bd bd 48 d2 d4 3e da eb c1 3e 48 0a ff be
       -0.09266055 0.41566682 0.37875253 -0.4981253
0003d0 02 dc 04 3f 98 15 08 bd f7 20 f7 3e bc 51 58 3d
       0.51898205 -0.03322372 0.48267338 0.052812323
0003e0 58 28 54 bf 37 18 d6 3d 0c 90 39 be dd 7b 76 bf
       -0.8287406 0.10453837 -0.18121356 -0.9628275
0003f0 95 23 b5 be 24 55 4f be ef 4c 7e bf 60 37 a7 3c
       -0.3537871 -0.20247322 -0.9933614 0.020412147

weight f4 [1, 64]
000000 06 40 08 3f c8 de 1b 3f c3 15 f0 bf 00 64 33 bb
       0.5322269 0.6088681 -1.8756641 -0.0027372837
000010 e9 fb 21 3f 9c b8 b0 bd 87 c2 ef 3e 7c 61 83 3f
       0.6327501 -0.086289614 0.468281 1.0264125
000020 20 1a e0 be d4 0a 53 bf f0 5e 3e 3f 0a e5 f6 3e
       -0.43769932 -0.824384 0.74363613 0.48221618
000030 d4 93 92 3d 23 b4 c6 3e 11 86 32 3f 2f c2 0b 3f
       0.07157102 0.38809308 0.6973582 0.54593176
000040 a8 23 8b bd 99 34 e3 3d 69 e7 ae 3f 86 4b 2b 3f
       -0.0679391 0.110940166 1.3664371 0.66912115
000050 e8 b4 14 3f cc d2 03 3f c1 7b 2a 3f 5c ec 63 3f
       0.5808854 0.51493526 0.66595083 0.8903253
000060 9e be 20 3f 1d 3b ae 3e 6a 6a e5 3e 5f d4 1b 3f
       0.6279086 0.34029475 0.4480775 0.6087093
000070 9b be 3a bf 30 69 52 3d 35 9c 89 3e 07 6f 40 3f
       -0.7294709 0.051369846 0.2687699 0.75169414
000080 73 37 23 bf b3 c9 6b bf 00 54 3d b9 ed 60 9d 3e
       -0.63756484 -0.92104644 -0.00018055737 0.3073801
000090 a2 ef 7a bf c2 eb 02 3f fd 1a 82 bf d0 8f f6 3e
       -0.980219 0.5114099 -1.0164486 0.48156595
0000a0 b7 26 09 3f aa 45 0f 3f 62 21 fb 3e cd 3f 53 40
       0.535747 0.55965674 0.49048907 3.300769
0000b0 a9 5a 1b 3e 7d 23 12 3f d4 9e ab 3e 02 f0 ba 3e
       0.15171303 0.570854 0.33519614 0.36511236
0000c0 ac af 9b ba 7b 6b c9 3e 33 bf 14 3f 92 a3 40 bf
       -0.0011877916 0.39339814 0.58104247 -0.7524959
0000d0 0e f9 24 3f 9d d2 01 3f d3 6a 75 be 79 b0 21 c0
       0.6444253 0.50711995 -0.23966531 -2.526396
0000e0 49 55 38 3f 66 fb b2 bd 9b 0f 55 40 26 fa fe 3e
       0.72005135 -0.08739357 3.3290775 0.49800223
0000f0 de 7f a1 3d 6f 23 28 bd 7b ac c0 be e0 c3 18 3f
       0.07885717 -0.041049417 -0.37631592 0.5967388
