know-based/models/gps_pearson_last.pth (torch, 5471 bytes, 3 tensors)

weight f4 [64, 5, 1]
000000 50 e1 e2 be 7d 28 33 bf 71 10 a9 bd ba 2d a2 3b
       -0.44312525 -0.69983655 -0.08255089 0.0049492987
000010 cd 60 9a bd 59 83 a0 3d c5 bd eb 3a d8 22 38 be
       -0.075379945 0.078375526 0.0017985633 -0.17982042
000020 70 28 81 bb 79 10 33 be 55 11 3e bf 41 b9 29 be
       -0.003941588 -0.17486753 -0.74245197 -0.16574575
000030 6d 6c 78 bf 28 cd 43 bf 10 85 73 bf 23 6e 75 bf
       -0.97040445 -0.7648492 -0.9512491 -0.9587118
000040 3f b9 57 be b0 40 48 bf b3 8f 81 bf a9 f5 18 bf
       -0.2106676 -0.78223705 -1.0121979 -0.5974985
000050 4b 13 d1 be f3 17 09 bf 01 1f ee be 23 54 82 bf
       -0.40835032 -0.5355217 -0.4650803 -1.0181926
000060 21 d1 11 bf 34 e3 bb be 03 6b 18 bf 99 61 0a bf
       -0.5695973 -0.3669678 -0.59538287 -0.5405517
000070 56 64 05 bf e4 a9 45 bf 25 f8 72 be f8 0e 5f bf
       -0.52106225 -0.7721236 -0.23727472 -0.87132215
000080 07 0a 83 bf 20 5e e0 be 92 f6 b5 be a3 89 1f bf
       -1.0237435 -0.43821812 -0.3553968 -0.6231939
000090 ba 38 c7 be a7 18 16 bf c7 94 71 bf bf d4 c9 be
       -0.38910466 -0.58631366 -0.9436764 -0.39420125
0000a0 9c cb 14 bf 6a a1 de be db 77 65 bd 90 6b e7 be
       -0.58123183 -0.43482524 -0.056022506 -0.4519925
0000b0 1a 81 0e be 68 60 d8 be f6 31 65 bf 1d 8b 6e bf
       -0.13916436 -0.42261052 -0.8952936 -0.9318102
0000c0 a1 92 8d bd 0b bb 59 bf 2d 1e 3f bf 5b 42 e2 be
       -0.06912733 -0.8505103 -0.7465542 -0.4419125
0000d0 6e 76 34 bf 82 01 2c bf 97 98 6f bf 39 87 6c bf
       -0.7049321 -0.671898 -0.9359221 -0.92393833
0000e0 68 82 5e bf 56 0f 20 bf 6e 55 da be 4c 76 9f bf
       -0.86917734 -0.625234 -0.42643303 -1.2457976
0000f0 47 c0 06 bf d2 fc 11 bf 89 50 28 bf c1 6f d9 be
       -0.5263714 -0.570264 -0.65747887 -0.42468074
000100 bc 38 61 bf 54 f4 d0 bd aa e6 a3 be c4 b1 ae be
       -0.87977195 -0.10202852 -0.3201192 -0.3412
000110 48 f6 aa bd 38 35 d3 3d b1 36 be be 3e 60 48 bf
       -0.08347756 0.10312885 -0.371511 -0.78271854
000120 c6 1d 6c bf c3 90 66 bf 9e 7b 24 bf 80 bc 2c bf
       -0.9223293 -0.9006464 -0.64251125 -0.6747513
000130 8e be e3 bd da 32 06 bf 9c 3b 17 bf 95 f7 56 be
       -0.1112033 -0.52421343 -0.5907533 -0.20992883
000140 d2 26 03 bf 0c 47 44 bf e5 e3 08 bf 80 e6 78 bf
       -0.5123111 -0.7667091 -0.5347274 -0.97226715
000150 dc 48 5c bf eb 6c 0e bf f5 04 a7 be 12 bd b8 3d
       -0.86048675 -0.55634946 -0.3262097 0.09020437
000160 f1 70 92 be b7 ab 01 bf 33 d9 c9 be 12 b6 d1 be
       -0.28601792 -0.5065264 -0.39423522 -0.4095922
000170 47 2d ed 3c df f2 aa be e0 a8 01 bf 59 e7 00 bf
       0.028952254 -0.3338842 -0.5064831 -0.5035301
000180 db d3 c3 be fc 65 46 bf 0b ee db be 7a 3d 61 be
       -0.3824757 -0.77499366 -0.4295505 -0.21996108
000190 b8 e6 20 bf 3d a3 b0 be b6 60 19 bd c7 cf 86 be
       -0.6285205 -0.3449954 -0.037445746 -0.26330397
0001a0 10 52 99 3c 59 41 76 bf 24 0b 45 bf 68 a0 fa be
       0.018715888 -0.9619346 -0.76970124 -0.48950505
0001b0 64 34 58 bf 03 7f 75 bd e0 5e 3f bf 29 8f 1f bf
       -0.8445494 -0.05993558 -0.7475414 -0.6232782
0001c0 f2 10 11 be 0a 78 5f be 12 8c 5d be 6f a9 5e bf
       -0.1416662 -0.21823135 -0.21635464 -0.86977285
0001d0 9a 95 10 bf b6 92 09 be 36 4d 36 bf be 3a c0 be
       -0.56478274 -0.13434872 -0.71211565 -0.37544817
0001e0 f0 fd 24 3d d6 e1 a3 be 45 11 df be c0 90 b4 bd
       0.040281236 -0.32008237 -0.43567863 -0.08816671
0001f0 38 75 1b 3e 2e a5 e0 be 0a 77 3a bf a3 d1 07 bf
       0.15181434 -0.43876022 -0.7283789 -0.53054255
000200 96 02 8f bf 6f 43 5c bf 9e cb 6f bf b7 f0 d1 be
       -1.1172664 -0.86040395 -0.9367007 -0.41003963
000210 42 d8 21 bf ee 03 3f bf 5d 8a 88 bf 69 40 da be
       -0.6322061 -0.7461537 -1.0667225 -0.42627266
000220 e0 28 f3 be 8a de 1a be 46 af c5 bd 55 2d 3d be
       -0.47492123 -0.15123954 -0.096525714 -0.18474324
000230 68 66 ad be f7 82 2c bf af 2a 3e bf da b3 35 bf
       -0.33867192 -0.67387336 -0.7428388 -0.70977557
000240 ca ec 68 bf fc 18 f3 be 91 23 6a bf 03 91 12 bf
       -0.9098631 -0.4748 -0.9146052 -0.5725252
000250 16 73 6e bf 2a b5 8a be 69 56 5b 3e 2f 7d 7a be
       -0.9314436 -0.27091342 0.21419682 -0.24461816
000260 ff 5c 6f bf 65 15 1b bf 00 1a 82 bf b8 30 1e bf
       -0.93501276 -0.6057952 -1.0164185 -0.6179309
000270 58 04 a0 bf 58 27 9b bf 84 27 9d bf 7d fd 88 bf
       -1.2501326 -1.2121382 -1.2277684 -1.0702358
000280 7a 49 5f bf 13 2f cc be 67 f4 68 bf 36 10 6e bf
       -0.8722149 -0.39879665 -0.9099793 -0.92993486
000290 0d 0a 4b bf 56 74 4e bf 3f 8c 0d bf 9f b4 e7 be
       -0.7931221 -0.80646265 -0.55292124 -0.4525499
0002a0 34 11 59 bf 3c be 0c bf 39 3d 89 be e3 83 15 be
       -0.84791875 -0.54977775 -0.26804522 -0.14601092
0002b0 0a d4 1e bf 3e 09 ec bd 12 91 a2 bd 95 c5 11 bf
       -0.62042296 -0.115252 -0.07937826 -0.5694211
0002c0 48 2d 4d bf a6 33 c4 be ea 12 57 bf 85 9f 9a be
       -0.8014722 -0.38320655 -0.84013236 -0.3019983
0002d0 a6 a7 f3 be 7f 6c 7a be 7e 32 27 be 98 ef d9 be
       -0.47588843 -0.2445545 -0.16327855 -0.42565608
0002e0 3c 8e 58 bf 3c 2b 11 be 5b e7 ae bf fd f5 87 bf
       -0.8459203 -0.14176649 -1.3664354 -1.0621945
0002f0 b8 f9 86 bf 6c 61 29 bf 31 32 34 bf 65 c0 18 bf
       -1.0544958 -0.6616428 -0.70389086 -0.5966857
000300 cf 8d 08 bf fb f1 ce bd 6a d1 47 bf 9c 2c 3f bf
       -0.5334138 -0.10104748 -0.78053916 -0.74677444
000310 fd c5 66 bf a6 f0 54 be ce 1d 46 be 3a 22 a2 be
       -0.90145856 -0.20794925 -0.19347307 -0.31666738
000320 3c c7 f3 be bd 7b 69 bf a7 8e 88 bf eb 37 26 bf
       -0.4761294 -0.91204435 -1.0668534 -0.64929074
000330 4e 58 23 bf 22 e5 91 be 6b 5a 12 be 30 5c 36 bf
       -0.6380662 -0.28495127 -0.14292304 -0.71234417
000340 23 85 29 3c 92 89 2f bf 1e cf f4 be cb da 92 be
       0.010346684 -0.6856929 -0.47814268 -0.2868255
000350 44 c1 69 bf b1 c3 55 bf 4f ba 6f bf 23 55 4c bf
       -0.91310525 -0.83501726 -0.9364366 -0.7981741
000360 50 5f 6f be d2 84 3e bf 3a ef 35 bf a2 a0 1c bf
       -0.23376203 -0.7442142 -0.71068156 -0.61182606
000370 11 68 97 be a8 58 ff be ff 34 e8 be 10 ec 86 bf
       -0.29571584 -0.49872327 -0.45352933 -1.054079
000380 33 3f 31 bf 58 14 1f bf 12 06 37 bf fa 9a 76 bf
       -0.6923706 -0.6214042 -0.7149364 -0.96330225
000390 1c cc 3e bf cf 83 38 bf c2 dc 91 3c ca e9 ac be
       -0.74530196 -0.72076124 0.01780546 -0.33772117
0003a0 65 a8 27 bf 40 76 1e bf c3 cf 5f bf ea 92 b9 be
       -0.65491325 -0.61899185 -0.87426394 -0.362449
0003b0 80 4e 7d bf 18 bc 7d bf f9 cd 93 bf 0e e9 52 be
       -0.98947906 -0.99115133 -1.1547233 -0.20596716
0003c0 16 62 f5 be 08 86 6e bf 28 7e 96 be d0 61 7f bf
       -0.47926396 -0.93173265 -0.29393125 -0.99758625
0003d0 5f e1 75 bf 28 a4 6a be 01 a5 8f bf 02 83 9a bf
       -0.96047014 -0.22914183 -1.122223 -1.207123
0003e0 f3 3f 31 bf 77 35 79 bf 81 58 33 be 66 6e 2a bf
       -0.69238204 -0.97347206 -0.1751423 -0.66574705
0003f0 63 54 d9 be 58 58 4d 3e 56 87 d9 bd c4 6f f4 be
       -0.42447194 0.20053232 -0.106215164 -0.4774152

bias f4 [64]
000000 1f be 2f bf 80 64 13 be be 26 d3 be 02 28 59 bf
       -0.68649477 -0.14393806 -0.41240495 -0.8482667
000010 25 28 71 bf f6 1c 42 bf 23 75 82 bf c4 ae 2a bf
       -0.9420188 -0.7582544 -1.0191997 -0.6667292
000020 17 2c 79 bf 6c 81 3e bc 77 54 12 bf 1e 8a 06 bf
       -0.973329 -0.011627536 -0.57160133 -0.525545
000030 ff 33 73 bf 92 d5 8c be bf aa f8 be 6b f9 8a bf
       -0.95001215 -0.2750669 -0.4856777 -1.0857366
000040 8e b1 1e bf 71 f1 13 bf 26 c4 6d bf 1c 71 24 bf
       -0.61989677 -0.57790285 -0.92877424 -0.6423509
000050 03 5b f8 be 36 90 e5 be 3b c4 4b be d7 a5 51 bf
       -0.48506936 -0.44836587 -0.19899075 -0.81893677
000060 5e fa b1 be 02 8f 41 bf 36 e0 e8 be 86 65 06 bf
       -0.34761328 -0.7560884 -0.4548356 -0.5249866
000070 b5 0d 20 bf 96 97 3f bf a8 d4 91 bf 43 cb 58 bf
       -0.62520915 -0.74840677 -1.1393023 -0.8468515
000080 2e c4 b8 be 5b 19 8b be 3a 7f 96 bd 89 e3 3d bf
       -0.36087173 -0.27167782 -0.07348485 -0.74175316
000090 3e 9b 26 bf 1a bb 09 bf 71 9e 98 be 76 38 5e bf
       -0.6508063 -0.5380112 -0.2980838 -0.868049
0000a0 ec 64 8f bf 28 87 27 bf 56 c6 83 bf 24 dd 47 bf
       -1.1202674 -0.6544061 -1.0294902 -0.7807181
0000b0 37 3a 70 bf 2e 4a bf bf df ee e1 be c0 10 e4 be
       -0.9383883 -1.4944513 -0.44127557 -0.4454403
0000c0 7e e8 33 bf 9d b3 7c bf 80 d4 5c be 08 07 8c bf
       -0.7027663 -0.9871157 -0.21565437 -1.0939646
0000d0 4e b8 1f be d6 48 aa be a4 6e cf be fa b2 a9 be
       -0.1559765 -0.33258694 -0.405141 -0.3314436
0000e0 1a 93 4f bf 39 ae 93 bf d5 7c 3c bf ee dc 98 be
       -0.81083834 -1.1537544 -0.7362798 -0.29856056
0000f0 77 8b ea be 9f d2 38 bf 00 51 c6 be c9 85 6e bf
       -0.45809528 -0.7219638 -0.38733673 -0.9317289

weight f4 [1, 64]
000000 c3 fb 63 be b2 40 61 3d e4 90 90 be 38 7a c3 3d
       -0.22264008 0.05499334 -0.28235543 0.09544796
000010 37 be f7 3e f9 0c fb be 40 51 10 3f e4 33 ea 3e
       0.4838731 -0.49033335 0.5637398 0.45742714
000020 21 a1 96 be 81 fb 9d be 8a 9a 00 bf c3 94 c7 3e
       -0.29419807 -0.30855945 -0.5023581 0.38980684
000030 4c 71 98 3e 0e d4 f0 3d 3c e8 9f 3e 3b 92 04 bf
       0.2977394 0.11759196 0.31231868 -0.5178563
000040 00 26 19 3f cf 69 96 3e 13 bf 15 bf a7 e6 40 3e
       0.5982361 0.293776 -0.5849468 0.18837987
000050 2d 4f 2c 3e 03 e1 e4 3e 24 26 2e 3e 80 f9 c7 be
       0.16827078 0.4470292 0.17006737 -0.3905754
000060 3a 2e be 3d bc 46 54 3e 54 5d c6 3e 5a 8c 04 bf
       0.09286161 0.20730108 0.3874308 -0.5177666
000070 34 7a 9c 3e 41 65 07 bf a8 2c 89 bd e5 d9 d6 be
       0.30561984 -0.52888876 -0.06697971 -0.41963115
000080 28 5a 9f 3e e6 23 95 3e e8 ca 1a 3e 16 fd f7 be
       0.3112347 0.2912895 0.15116465 -0.48435277
000090 0a d1 46 3e 71 74 d0 3b 11 4b ac 3e 35 69 e7 be
       0.1941568 0.006361537 0.3365102 -0.45197454
0000a0 4f 75 c3 bd e8 5f 9e 3e 4e a4 99 3e 47 75 80 be
       -0.09543859 0.30932546 0.30008167 -0.25089476
0000b0 cb 9d e2 be 4e 55 a1 3e cb d2 e4 3e 27 87 08 be
       -0.4426101 0.31510395 0.44692072 -0.13332807
0000c0 64 07 09 3f f6 0d 94 be 48 c9 e0 be 6c 2d 24 3e
       0.535269 -0.289169 -0.43903565 0.16032952
0000d0 d6 f1 9d ba e6 bf d0 3d 37 29 20 bf 78 89 f9 bd
       -0.0012050222 0.10192852 -0.6256289 -0.12184423
0000e0 af 02 cb 3e 43 89 a0 be 29 4a f3 3e 70 c3 46 3d
       0.39650485 -0.31354722 0.47517517 0.048526227
0000f0 2a df d6 3e 88 3a a6 3e e0 36 9c 3c d1 d8 04 3f
       0.41967136 0.3246653 0.019069135 0.51893336
