know-based/models/gps_pearson_best.pth (torch, 5471 bytes, 3 tensors)

weight f4 [64, 5, 1]
00000000: 4bf9 ebbe d8b4 8ebf 599b 8abf ea16 8bbf
00000010: 8c09 53bf 4699 c8be ef92 7ebd 8222 7bbe
00000020: f887 59be a5b9 c5be 9349 8cbf 08a3 2cbf
00000030: 757a 98bf 7d2d 8abf ef85 82bf 51a4 39bf
00000040: 94be e3be 3f58 05bf 3a7b 64bf 212c 4abf
00000050: 2811 9abe e028 0fbd 9b2c c0be 7ece e1be
00000060: 4e9a a5be 1551 4bbf 1922 4cbf 60c3 1fbf
00000070: 113b 13bf b4aa 8abe 87b8 33bf 1fef a6bf
00000080: 4b1c 98bf 82ad 6abf f08f 8abf 710e 72bf
00000090: 33bc 66be 3b88 3dbe a3b8 33be e8c4 34bf
000000a0: 5181 9abe 2e36 9cbf 930d 5cbf 6d3d 0ebf
000000b0: 998d a3be 6f98 23bf 8409 9bbe a289 babe
000000c0: cb49 23bf c096 45bf 040b 56bf b569 77be
000000d0: 874b a5be 897b 14bf 34c4 67bf a892 52bf
000000e0: 659a 41bf 63e3 f4be 3b02 debe e375 83bf
000000f0: 45e4 37bf 2889 4abf af02 40be d6cd 1abf
00000100: c954 81be 9c1c 38bf e699 92be a424 0cbe
00000110: 3107 63bf b1bb 55bf 9d6e 70bf 7fa3 eabe
00000120: 6839 8cbf 868c 9bbf 0671 9bbf 5e12 35bf
00000130: 772f 8abf bd3a 65bf 3127 6bbf ca3d 88bf
00000140: 7a26 0bbf 0516 43be 2fed 0bbe 558d 4dbf
00000150: 36d6 42bf e8f9 e5be 332b 7bbe ffc0 38be
00000160: 6fc2 02bf 4b76 d33d 9016 d6be 3c41 dbbe
00000170: dbe4 25be 4f6e a5be c106 a23d 5960 023e
00000180: e4f6 c3be 6db6 b6be 3e8d 87bf 548e 31bf
00000190: 37e4 2abf cd2e 09bf 8662 a4bf a9d9 92be
000001a0: a2d8 26bf 8ef1 17be 0ad7 32bf b4eb eabe
000001b0: 50c5 1ebf a190 59bf 685c a3be e2a7 acbe
000001c0: f73c 46bf c1dd 24bf 7f44 dcbd 60ce 96bf
000001d0: 3c9f 0bbf f6bf f6be 224a 21bf c751 3bbf
000001e0: 6da2 1fbf b9f5 38bf 2aa8 38bf a530 63bf
000001f0: aed9 7bbf 88e2 e93c 256e 95be 277c 3dbf
00000200: f828 d6bd 2a74 e9be 7413 29bf cfca 75bf
00000210: cc94 10bf 82e1 71bf a645 3fbf 1cae 49be
00000220: a32c bfbe bd1b 0f38 880e c1be d15f 1abc
00000230: e731 5bbe bb3d 41bf 9187 6fbf a666 13be
00000240: 1bf1 4dbf f868 2bbf fd86 16bf e08e debe
00000250: ed59 84bf a57b 8ebf 758f c9be 3f7c 90be
00000260: 4b5b 1bbe b0ee 213c 3368 09be d207 43bf
00000270: d02c 81be c371 35bf 26d2 37bf ace2 27bf
00000280: dfe1 5abf 9b09 d2be 45ca a7be bf24 c8be
00000290: 04f4 05bf d83d 21bf 1299 b4be 6fac 45bf
000002a0: 2144 02bf cbfe 56bf 1c95 3cbf 5888 4bbf
000002b0: d7aa 05bf e6ae 84be 3bd4 d9be 953d 76bf
000002c0: a71a adbe d41d 09bf 6cbf 84bf 169c 85bf
000002d0: fc8a 5dbf 43df 04bf 05fa 0dbf 93e2 1cbf
000002e0: 17bd adbe 0866 3bbf 4dde 35bf a33d 84bf
000002f0: bb55 16bf 659f 78bf 7c00 2dbf 98be 4fbf
00000300: 8eb1 73bf 0857 9dbf 31fe cbbe 0d5f 40bf
00000310: 526f 17bf 0f3c 24bf 0649 d7be e9c4 2bbf
00000320: 44ff e5be fb30 c2be 3052 19bf 6b59 fdbe
00000330: 94cc 08bf 8814 2fbf 33b6 5fbf 98d0 e9be
00000340: a34c 8fbf dfed 00bf 3d6e ffbe f66a 8ebf
00000350: fa4e 1dbf 055f 33bf 3765 51bf f0e4 953d
00000360: f342 5bbf dd93 63bf 9fa3 7bbe fd10 aebe
00000370: 992c 3abf d744 67bf 5c41 00bf 265a 5abf
00000380: d5a4 acbe e717 f5be e720 5cbf 2c1d 6bbf
00000390: 7047 bfbe 8cf7 3ebf f017 1fbf 761e aabe
000003a0: 0bc8 24bf 5e20 57be 1083 fbbe 48dc 15bf
000003b0: c43f 3bbf 3443 05bf 17bf f5be 0aa4 1dbf
000003c0: e058 2abf da01 abbe 0cab 17bf aa76 47bf
000003d0: baad 24bf c769 00bf 2b92 afbe 1148 6abf
000003e0: db05 15bf 9637 11bf aedf 21bf db08 f8be
000003f0: e69d 5fbf ff9b bfbe 1ce0 19bf 170d 02bf
-0.46088633 -1.1148939 -1.0828658 -1.0866368 -0.8243644 -0.39179438 -0.062151846 -0.24524882
-0.21243274 -0.38618198 -1.0959953 -0.67436266 -1.1912371 -1.0795132 -1.0197123 -0.7251635
-0.44481337 -0.5208778 -0.8925053 -0.78973585 -0.30091214 -0.03495109 -0.3753403 -0.44102854
-0.32344288 -0.79420596 -0.7973953 -0.62407494 -0.57512003 -0.2708336 -0.7020344 -1.3041724
-1.1883634 -0.91671 -1.0825176 -0.94553286 -0.2253273 -0.18508999 -0.17550902 -0.70612955
-0.30176786 -1.2204034 -0.8595821 -0.5556248 -0.31943968 -0.6390447 -0.30280697 -0.3643313
-0.63784474 -0.7718315 -0.8361056 -0.24161418 -0.32284185 -0.58001 -0.9053376 -0.8225503
-0.7562621 -0.47829732 -0.43361077 -1.0270351 -0.71832687 -0.79115534 -0.18751024 -0.6047033
-0.25259998 -0.71918654 -0.2863304 -0.13685852 -0.8868285 -0.8348952 -0.9391878 -0.45827863
-1.0955019 -1.2152259 -1.2143867 -0.7073115 -1.0795735 -0.8954275 -0.91856676 -1.0643857
-0.54355586 -0.19051369 -0.13664697 -0.8029378 -0.7610811 -0.44917226 -0.24528198 -0.18042372
-0.5107793 0.10325297 -0.4181409 -0.42823207 -0.16200583 -0.3231072 0.079114445 0.12732066
-0.382743 -0.35686055 -1.0589979 -0.693578 -0.6675448 -0.5358704 -1.2842567 -0.28681687
-0.65174305 -0.1483824 -0.69859374 -0.45882952 -0.62019825 -0.8498631 -0.31906438 -0.33721834
-0.77436775 -0.6440087 -0.10755252 -1.1781731 -0.5453985 -0.4819333 -0.6300374 -0.7317166
-0.6235722 -0.72249943 -0.721316 -0.887461 -0.9837903 0.028550401 -0.29185596 -0.74017566
-0.10457033 -0.4559644 -0.6604531 -0.96012586 -0.56477046 -0.9448472 -0.7471565 -0.19695324
-0.37338743 3.411969e-05 -0.377064 -0.0094222585 -0.21405755 -0.7548482 -0.9356623 -0.14394626
-0.8044602 -0.66957045 -0.58799726 -0.4346838 -1.0339943 -1.1131483 -0.39367262 -0.28219792
-0.15171544 0.009883568 -0.13418655 -0.7618381 -0.25229502 -0.7087671 -0.71805036 -0.6558025
-0.855009 -0.41022953 -0.32771507 -0.39090535 -0.52325463 -0.6298499 -0.35273033 -0.7721624
-0.50885206 -0.83982533 -0.7366502 -0.7950492 -0.52213806 -0.25914687 -0.42544731 -0.96187717
-0.33809397 -0.5356114 -1.0370917 -1.0438259 -0.865402 -0.5190317 -0.55459625 -0.61283225
-0.33933327 -0.7320256 -0.7104233 -1.033131 -0.58724564 -0.97118217 -0.67578864 -0.811502
-0.951928 -1.2292185 -0.3984237 -0.75145036 -0.59154236 -0.6415414 -0.420479 -0.67097336
-0.44921315 -0.37927994 -0.59891033 -0.49482283 -0.5343716 -0.68390703 -0.8738739 -0.45666957
-1.1195263 -0.5036296 -0.49888793 -1.1126392 -0.61448634 -0.70066863 -0.81795067 0.07319057
-0.8564903 -0.88897496 -0.24574135 -0.33997336 -0.727243 -0.90339416 -0.5009973 -0.85293806
-0.33719507 -0.478698 -0.85987705 -0.9184139 -0.3735919 -0.74596477 -0.621459 -0.33226365
-0.6436774 -0.21008441 -0.4912343 -0.5853925 -0.73144174 -0.5205567 -0.47997352 -0.6157843
-0.6654186 -0.3339985 -0.5924537 -0.7791544 -0.64327586 -0.50161403 -0.34291205 -0.91516215
-0.5821206 -0.5672544 -0.63231933 -0.48444256 -0.8735031 -0.37423703 -0.6010759 -0.50801224

bias f4 [64]
00000000: 093e 76bf 9aa5 3bbf 9b2a 3dbf a249 9fbe
00000010: 996b 03bd 6f3a 0ebf 6b21 30bf 8b71 72bf
00000020: f1fc 3dbf a0ef f6be 94d3 83bf 088e 5cbf
00000030: c09e fbbe f561 65bf 448b 3abf 3e2b 0bbf
00000040: 4986 27bf a7e8 85bf 6e06 57be 9baa 0bbf
00000050: cabe 1fbf d80f d5be 6a6d 47bf 074f 57bf
00000060: d874 93bf 6fde fabd 735a f8be f16b 07bd
00000070: 6884 07bf 75c9 1ebf c7b5 9dbe 34eb 95be
00000080: ad36 0cbf 0daf 0abf 3075 06bf eb48 03bf
00000090: 0f22 edbe e5e6 08bf 0cf8 07bf da9f a1be
000000a0: c0db 2dbf 9fb9 4cbf 6e94 49bf 2d76 8fbe
000000b0: d12a 82bf 93e1 75bf 73f5 f3be 0dd9 c8bf
000000c0: d7f6 5bbf 91a0 6dbf 57cc 0ebf f2ce 40bf
000000d0: 49e2 46bf 40bb 1bbf 0689 15be ab18 f6be
000000e0: 3078 9fbe 626e c4be 4017 acbe de3e 60bf
000000f0: 1647 ecbe a003 3bbf 85d8 38bf 3ab7 62bf
-0.9618841 -0.7329956 -0.73893136 -0.31110865 -0.032085035 -0.5555791 -0.6880099 -0.947045
-0.7421408 -0.48229694 -1.0298944 -0.8615422 -0.49144554 -0.89602596 -0.7286875 -0.5436286
-0.6543928 -1.0461625 -0.20998546 -0.545572 -0.62400496 -0.4161365 -0.7790133 -0.8410496
-1.1520033 -0.12249457 -0.48506507 -0.033061925 -0.5293641 -0.6202615 -0.30802748 -0.29281008
-0.5477093 -0.54173356 -0.52522564 -0.5128314 -0.46315047 -0.5347732 -0.53112864 -0.3156727
-0.67913437 -0.79970735 -0.7874211 -0.28019848 -1.0169317 -0.96047324 -0.476482 -1.5691239
-0.8592352 -0.9282313 -0.5578055 -0.75315773 -0.77689034 -0.60832596 -0.14603052 -0.48065695
-0.31146383 -0.38365465 -0.33611488 -0.8759593 -0.46147984 -0.73052406 -0.7220538 -0.8856083

weight f4 [1, 64]
00000000: 40ce 04bf a024 09bf dba7 e83e 3323 993e
00000010: 4084 20bc 69e1 a3bd 6f71 c33d 0eb8 913e
00000020: f98f eabd 0e4c d13e 42ea f9bc 9b07 02bf
00000030: 5cd5 b63e 92a2 eb3e 4a87 e43e 6f6f 35be
00000040: b6ff df3e d5db e1be f89b 82bd ede0 71be
00000050: 17ce 19bd ee98 cf3e 6d09 d33e 10cc a93e
00000060: 9975 383e 8bbd 613e f351 6e3e fa7b acbd
00000070: 469f e03e 42da 583e 0c6f c33d 5d9a 903e
00000080: 5e17 d83e 0708 af3e b0ad ca3e 5ce5 a53e
00000090: 5652 fabe a5c0 c23e f34a d83e 5e8e 873e
000000a0: 70f8 d93e 4687 adbe dd76 03bf 2131 4f3e
000000b0: 1e02 07bf 31d1 143f e74a b33e 1b63 503e
000000c0: f212 2c3e 5317 cb3e 1c40 c73e 28fd db3e
000000d0: eac8 973e d0f3 e53e 45c8 febe ca6c 743e
000000e0: ae6f 743e 7050 e4be afde 493e 3f82 0ebf
000000f0: 6123 5cbe 8a1f 05bf 46cf c03e b721 d43e
-0.5187721 -0.5357151 0.45440564 0.29909667 -0.009797156 -0.08001978 0.0954312 0.28460735
-0.11453242 0.40878338 -0.03050721 -0.50792855 0.35709655 0.4602247 0.44634467 -0.1771829
0.4374978 -0.4411303 -0.06377405 -0.23620959 -0.03755006 0.40546364 0.4121813 0.331635
0.1801361 0.22044961 0.23273449 -0.08422084 0.43871516 0.21177009 0.09542665 0.2824277
0.42205328 0.34185812 0.39585638 0.3240155 -0.48890942 0.380376 0.42244682 0.26475805
0.42572355 -0.33892268 -0.51353246 0.20233585 -0.52737606 0.581317 0.35018083 0.20350306
0.16804102 0.39666232 0.389161 0.4296658 0.29645473 0.44912577 -0.4976217 0.23869625
0.23870727 -0.4459262 0.19713853 -0.5566749 -0.21497871 -0.5200125 0.37658137 0.41431972
